Model: "sequential"
_________________________________________________________________
 Layer (type)                Output Shape              Param #   
=================================================================
 conv2d (Conv2D)             (None, 26, 26, 256)       2560      
                                                                 
 conv2d_1 (Conv2D)           (None, 24, 24, 64)        147520    
                                                                 
 conv2d_2 (Conv2D)           (None, 22, 22, 64)        36928     
                                                                 
 conv2d_3 (Conv2D)           (None, 20, 20, 64)        36928     
                                                                 
 conv2d_4 (Conv2D)           (None, 18, 18, 16)        9232      
                                                                 
 flatten (Flatten)           (None, 5184)              0         
                                                                 
 dense (Dense)               (None, 10)                51850     
                                                                 
=================================================================
Total params: 285,018
Trainable params: 285,018
Non-trainable params: 0
_________________________________________________________________
Epoch 1/100
  1/750 [..............................] - ETA: 19:55 - loss: 2.3046 - categorical_accuracy: 0.0625
…
