…
 augmentation: 100%|█████████▉| 7571/7587 [03:00<00:00, 41.89it/s]data augmentation: 100%|█████████▉| 7576/7587 [03:00<00:00, 42.08it/s]data augmentation: 100%|█████████▉| 7581/7587 [03:00<00:00, 42.23it/s]data augmentation: 100%|█████████▉| 7586/7587 [03:00<00:00, 42.02it/s]data augmentation: 100%|██████████| 7587/7587 [03:00<00:00, 42.02it/s]
Model: "sequential_1"
_________________________________________________________________
 Layer (type)                Output Shape              Param #   
=================================================================
 conv2d (Conv2D)             (None, 60, 60, 32)        2432      
                                                                 
 conv2d_1 (Conv2D)           (None, 56, 56, 64)        51264     
                                                                 
 max_pooling2d (MaxPooling2D  (None, 28, 28, 64)       0         
 )                                                               
                                                                 
 conv2d_2 (Conv2D)           (None, 26, 26, 64)        36928     
                                                                 
 conv2d_3 (Conv2D)           (None, 24, 24, 64)        36928     
                                                                 
 conv2d_4 (Conv2D)           (None, 22, 22, 64)        36928     
                                                                 
 dropout (Dropout)           (None, 22, 22, 64)        0         
                                                                 
 flatten (Flatten)           (None, 30976)             0         
                                                                 
 dense (Dense)               (None, 5)                 154885    
                                                                 
=================================================================
Total params: 319,365
Trainable params: 319,365
Non-trainable params: 0
_________________________________________________________________
Epoch 1/100
  1/238 [..............................] - ETA: 9:56 - loss: 11.0305 - categorical_accuracy: 0.0000e+00
…
